bco_policy/Ant-v2.pt (torch_old, 25904 bytes, 8 tensors)

weight f4 [32, 111]
00000000: 4ba9 09bf 9f02 113e 5337 773d 0b46 243e
00000010: 0ab2 35be 0a90 803e af14 323e 9f2f df3a
00000020: f973 e6bd 13a3 0ebe 8560 f0bd 0091 77bd
00000030: 0fc3 ffbd 1e81 8e3d 0edc 9ebc c1ac a5bb
00000040: b3ad 05bd cc04 183c 7c54 c2bc 8737 cf3c
00000050: bd63 6e3d 7dee 3b3b 3bb5 2ebc 1af5 a7bd
00000060: 0d32 23bb 4864 6d3c 77c8 573b 7868 0100
00000070: b366 0080 6f71 0000 8586 0300 606e 0000
00000080: 2fb0 0100 7a15 0100 f3e0 0180 38eb 0000
00000090: 8c71 0000 949d 0180 da51 0080 af85 0000
000000a0: 6e0b 0300 4512 0000 1e1b 0000 4a58 0000
000000b0: c40b 0200 bd43 0000 49a8 0180 e049 0080
000000c0: ea08 0000 f0c1 0000 b814 0200 626f 0000
000000d0: d6a8 0100 9872 0080 7dcf 0180 a670 0080
000000e0: 051b 0080 8dd1 0000 3b42 0000 4037 0080
000000f0: e1bf 0100 2afc 0080 7803 0080 debf 0180
00000100: e7a0 0180 e5e4 0380 c31e 0080 5c56 0180
00000110: d110 0100 1e8d 0080 da59 0380 2708 0100
00000120: 087b 0080 216d 0080 eff7 0000 8ec8 0100
00000130: 29b5 0100 971e 0000 108d 0300 fcbe 0080
00000140: 6703 0200 ccd2 0180 2c01 0000 e063 0200
00000150: eb54 0000 f9c2 0100 cb09 0280 e85e 0180
00000160: 8392 0080 1c27 0600 b0f9 0280 5d1d 0080
00000170: d319 0000 1979 0180 accb 0100 2be7 0000
00000180: c48d 0080 5bae 0180 a367 0380 55ac 0080
00000190: 4712 0080 7703 0200 92a8 0000 201b 0200
000001a0: 9749 0000 7861 0180 ba46 0000 ff7c 0380
000001b0: 5368 0000 9e9d 0000 8b74 0080 53fc 853e
000001c0: 63f0 9c3c 13f9 4c3e 05d9 353e c958 523d
000001d0: c693 1d3e 81ad 4e3e c05c 4c3c f7a1 51bd
000001e0: 0760 28be 82bf 85bc 9eca 1fbd e417 ef3d
000001f0: 9e06 16bd e6f2 423d 8dd0 ee3c 5d61 423d
00000200: c0fd 313d 8897 cbbd fcab 92bc 4f2e b53b
00000210: 4671 d5bc d057 1bbc 777a 8ebc 9dce 873c
00000220: 6274 44bd 622d f33c 0f6e 0080 bc82 0080
00000230: 5d5d 0000 5b25 0180 78c2 0200 4ffa 0200
00000240: 75a9 0000 5a5d 0080 1b79 0100 d592 0180
00000250: 0235 0100 fc0a 0280 d58d 0080 67e9 0000
00000260: 70dd 0180 babb 0000 1c32 0200 2756 0480
00000270: 64f1 0200 d347 0200 c974 0200 178a 0100
00000280: 0d95 0080 4a77 0180 115b 0300 6a76 0100
00000290: ed0b 0100 b283 0000 eb87 0000 10f7 0080
000002a0: 34b1 0300 6110 0000 3c5c 0280 5f09 0000
000002b0: db66 0180 9848 0180 0241 0000 e216 0000
000002c0: e714 0280 bc39 0000 618f 0200 509f 0080
000002d0: 9ea2 0180 f955 0300 b8a6 0000 1292 0000
000002e0: c844 0080 9863 0180 1d0c 0200 8907 0200
000002f0: 9235 0180 621b 0200 cb76 0080 bb97 0000
00000300: 040a 0080 1965 0300 5196 0000 05a1 0300
00000310: a823 0000 b637 0300 47f0 0100 1074 0000
00000320: 6c5a 0000 673e 0000 c074 0000 6a76 0380
00000330: 7472 0000 5b8d 0000 aa9a 0480 0a32 0280
00000340: 14e4 0180 5d56 0480 f7ab 0080 dbce 0180
00000350: 131d 0280 3213 0000 b12d 0380 a29d 0380
00000360: 2f04 0180 1068 0300 b25a 0100 7774 0380
00000370: 1fd8 0180 e772 0000 3dbf 04bf e1e6 163e
00000380: 9975 26be ab24 c4ba e12f 463e 9441 66be
00000390: 9d19 123d f9af 0f3c 96a1 babd 647b 803e
000003a0: c190 14be b236 083e c3bb 943c 69f8 a43c
000003b0: 391e 3e3d b3f5 10bc 4d97 9abd ecc9 4ebd
000003c0: d37c a03d 93de 2c3d a2f8 bfbc 2d78 4c3b
000003d0: 0ae9 d4bd c48a 6d3c 1f5f b9bd ba1f 01bd
000003e0: fdc3 2a3c e7dc 0000 064a 0100 4f52 0100
000003f0: 1d08 0000 b6bd 0580 3263 0300 a02c 0080
-0.53773946 0.14161156 0.060355496 0.16042344 -0.17743698 0.25109893 0.17390703 0.0017027742
-0.11252589 -0.13929395 -0.1173716 -0.060441017 -0.12488376 0.06958221 -0.01939204 -0.0050559943
-0.032636356 0.009278487 -0.023721926 0.025295032 0.058200587 0.0028676086 -0.010663326 -0.08201046
-0.0024901659 0.014489241 0.0032925883 1.29312e-40 -3.6842e-41 4.0692e-41 3.23763e-40 3.9595e-41
1.55038e-40 9.954e-41 -1.72532e-40 8.438e-41 4.0733e-41 -1.48364e-40 -2.9363e-41 4.7957e-41
2.79607e-40 6.554e-42 9.728e-42 3.1672e-41 1.87892e-40 2.43e-41 -1.52205e-40 -2.6501e-41
3.198e-42 6.9572e-41 1.91103e-40 3.9957e-41 1.52402e-40 -4.1108e-41 -1.66268e-40 -4.041e-41
-9.693e-42 7.5173e-41 2.3759e-41 -1.982e-41 1.60669e-40 -9.046e-41 -1.244e-42 -1.60664e-40
-1.49556e-40 -3.57618e-40 -1.1035e-41 -1.22815e-40 9.7868e-41 -5.0623e-41 -3.07739e-40 9.476e-41
-4.4135e-41 -3.9148e-41 8.8942e-41 1.63781e-40 1.56824e-40 1.0974e-41 3.2611e-40 -6.8512e-41
1.84892e-40 -1.67455e-40 4.2e-43 2.195e-40 3.0463e-41 1.61779e-40 -1.87184e-40 -1.25881e-40
-5.2559e-41 5.65043e-40 -2.73242e-40 -1.0534e-41 9.264e-42 -1.35277e-40 1.64899e-40 8.2927e-41
-5.0856e-41 -1.54382e-40 -3.12684e-40 -6.1821e-41 -6.557e-42 1.84914e-40 6.0472e-41 1.93402e-40
2.6399e-41 -1.268e-40 2.5372e-41 -3.20347e-40 3.7424e-41 5.6542e-41 -4.1808e-41 0.2616907
0.019157594 0.2001689 0.17758568 0.051354203 0.15388402 0.20183374 0.012473285 -0.051179852
-0.16442882 -0.01632667 -0.03901159 0.11674479 -0.036627404 0.047594927 0.02915218 0.047456134
0.043454885 -0.09941012 -0.017904274 0.005529202 -0.02605499 -0.009481385 -0.01739238 0.016578013
-0.047962554 0.029684726 -3.9482e-41 -4.6899e-41 3.3492e-41 -1.05236e-40 2.53433e-40 2.73465e-40
6.079e-41 -3.3488e-41 1.3528e-40 -1.44509e-40 1.10851e-40 -1.87611e-40 -5.088e-41 8.3729e-41
-1.71272e-40 6.7344e-41 2.01647e-40 -3.98248e-40 2.70266e-40 2.09437e-40 2.25566e-40 1.41373e-40
-5.347e-41 -1.34628e-40 3.08175e-40 1.34314e-40 9.6114e-41 4.7243e-41 4.8758e-41 -8.863e-41
3.39075e-40 5.876e-42 -2.16758e-40 3.362e-42 -1.28733e-40 -1.17877e-40 2.332e-41 8.209e-42
-1.9117e-40 2.0711e-41 2.35106e-40 -5.715e-41 -1.50172e-40 3.06348e-40 5.9807e-41 5.24e-41
-2.4674e-41 -1.27563e-40 1.88016e-40 1.86374e-40 -1.11053e-40 1.93494e-40 -4.2615e-41 5.443e-41
-3.593e-42 3.11773e-40 5.3923e-41 3.3327e-40 1.2791e-41 2.95492e-40 1.78031e-40 4.1635e-41
3.2437e-41 2.2386e-41 4.1882e-41 -3.17985e-40 4.1058e-41 5.0709e-41 -4.22825e-40 -2.01622e-40
-1.73655e-40 -3.98323e-40 -6.169e-41 -1.66041e-40 -1.94101e-40 6.886e-42 -2.91897e-40 -3.32054e-40
-9.3336e-41 3.12837e-40 1.24371e-40 -3.17286e-40 -1.69365e-40 4.1219e-41 -0.51854306 0.14736511
-0.16255797 -0.0014964541 0.19354202 -0.22485954 0.035668958 0.0087699825 -0.09112851 0.2509414
-0.14508344 0.13302115 0.018155938 0.020137982 0.04641554 -0.008847642 -0.075483896 -0.050485536
0.07836308 0.04220445 -0.023433987 0.003119956 -0.10396011 0.014498416 -0.09051346 -0.031524397
0.010422704 7.9245e-41 1.1839e-40 1.21362e-40 2.91e-42 -5.27233e-40 3.11091e-40 -1.6008e-41

bias f4 [32]
00000000: 762e 553e 60a1 393d 3d58 1f3e a64e 793d
00000010: 7d86 fc3d d19f eabd 2358 e6bd 2489 b8bd
00000020: e71c c4bc 4a30 09bd fb03 0e3e 16d7 123d
00000030: d7c5 3abd da1f 103c d35c 34bd 568d 76bd
00000040: 7db0 343d 84a6 75bc 59c8 0ebe 2970 583b
00000050: e804 913c e8a6 b83d 5b40 6b3d bb82 78bd
00000060: 7b1f 4a3e e2a5 223c ca57 f93d faec 2a3e
00000070: 9899 babb 560b 443d 1939 3a3e 9374 1cbe
0.20818505 0.045319915 0.15561004 0.06086602 0.12330339 -0.11456264 -0.112472795 -0.090105325
-0.023939563 -0.033493318 0.13868706 0.035849653 -0.04559883 0.0087966565 -0.044033837 -0.060193382
0.044113625 -0.014993314 -0.13943614 0.0033025837 0.017702535 0.0901621 0.05743442 -0.06067155
0.19738571 0.009927245 0.121749476 0.16691962 -0.0056945793 0.047862373 0.18185844 -0.15278845

weight f4 [32, 32]
00000000: ac1c 373d de17 75bd 5e37 013e 4e8a 1e3d
00000010: df4e 843c 061a 333e 88aa c1bd 3ad2 9cbe
00000020: 5e4e d53d d937 8bbd 169f a7bd 13fc 44bd
00000030: d75a efbc 5266 88bc 97bb a1bd 8a5f 383d
00000040: b6c9 40bc 125a dbbd dca2 853d 2f6e 283e
00000050: 7c9e ac3d 78c3 833e 1988 873d 4aec c63d
00000060: 71b7 27be 71a7 2f3d 4301 08be 2d21 9f3e
00000070: ea68 513c ab66 2abe a9d5 aebb e2f4 c2bc
00000080: d5dc 2abe ead5 f53d 8317 38be 459c 373c
00000090: b732 08be 434e 5fbd 4174 7c3d 8532 273d
000000a0: 3a09 00bd b3e2 733e 3712 803d 0b6f 0e3d
000000b0: 9e8e 9c3e 99fb 2ebe 06a9 c03d 8bbc fb3d
000000c0: 9111 993d bef4 803d e522 e13d bc2c 273e
000000d0: bbf1 1b3d 3f99 403d 81e3 bfbd 1c7b 9dbb
000000e0: 03f0 413d 2c3f 4fbd fbfb dbbd 0ff6 01bd
000000f0: bd21 033e a3d5 01be 3b80 8bbe 6159 ecbc
00000100: 5715 77bd 5412 b8bd 2ac0 433e cac0 b4bd
00000110: 3788 06be 5c24 9bbd d295 ac3d 6454 bb3c
00000120: 4628 8b3d cb01 1e3d 3d33 8cbd bde8 c73d
00000130: 9af0 85be b67b 60bd 133a 553c 21d7 c83d
00000140: 87a9 99bd 568b 66bd 26bb e9bd 2b96 713d
00000150: e69e 873d ea76 583d 73c0 2d3e 102e a73d
00000160: 6e8a 7abd a4a7 e7bb 7d25 e73d 1abd 71bd
00000170: 5e7e 45bc 27c8 1dbd 9dc0 273e fd82 c7bd
00000180: ce8a 5ebe b100 a9bd 2188 43bd 5774 aebd
00000190: 5f66 b1be 3731 9abc 76c6 ce3d c006 76bd
000001a0: 85c9 08be 0dfa 873e f121 213e 4c2d 4e3e
000001b0: 921f 7a3e 9db9 8fbd 1b2d 273d 739d 853d
000001c0: 2dfe 3d3d 7005 14bd c767 30bd 3b12 223e
000001d0: 40a7 96bd 555a cf3d fda1 5abd e8e7 86bd
000001e0: 7fe4 cc3d 281c 193e 85b4 bc3d 85ce a4bd
000001f0: f2e8 ad3c d366 21bd 883a a3bd 5949 89bd
00000200: c712 983d c965 c83d ef8a d3bd 7768 7d3b
00000210: c147 0d3e a6fe e83c e854 bc3d feec 3fbe
00000220: 3b2e 023d fb34 073e c939 263e 5086 e2bd
00000230: 1dd0 fd3d 2e35 59bd 0d3b 613d c648 0ebd
00000240: 8daa 14bd 9dc3 f9bc 8ed7 73bd 716a ac3c
00000250: 555e 77bd 5407 22bd 8c6d 383d a891 adbd
00000260: dc30 8b3e 3676 7f3b 8302 01bd 4944 07bd
00000270: 24e6 7d3c 6c7f 9dbd 4967 07bc b23c fdbd
00000280: fb78 353e 9ac5 c73d f17c 773d 8f1e 9abd
00000290: 8854 213e 5a1e 0e3d c157 55bd 4537 e63c
000002a0: ea38 8d3d 3046 6bbe 489d 3a3d 1db1 9f3d
000002b0: 5e0d 7dbd f79f d63d 0157 0fbd ee8a 523d
000002c0: 0136 f4bd 6ec4 e1bb 5004 80be cd60 bdbd
000002d0: bf93 f03d b102 7c3d 6638 71bc a534 983d
000002e0: 0b81 d6bd b88e 17bd de76 e23d f996 173d
000002f0: 974e 29be fec3 883c a8ab 5a3e 5038 37bd
00000300: 08d1 993d e0d3 51bc 5046 b0bd 8eb1 113e
00000310: 45a6 ad3d 5554 4abc 18ab 33be d6f6 a8bc
00000320: 2643 eb3d 994f aabd f54e 26bd 20d2 f3bd
00000330: c0d2 14bd 922c 8c3c 2eaa 573c d117 94bd
00000340: 8392 afbd 3c05 f33d 8355 3abb 74c0 0b3d
00000350: b1fa 123b bd17 cb3d 5ae7 12bd 283a d23d
00000360: 6c49 033e 2e26 ebbd 8bc1 83bc 2a45 22bd
00000370: d788 50bd 0ca1 b13d 9f92 073d dca8 a1bd
00000380: 5823 5c3a 90a0 4f3c cacb b83e f300 f03b
00000390: 2a82 c23d 2b87 b1bd d3ae 0dbe fcad 55bd
000003a0: 991f 6cbe b99b aabd d4ca 463d 9411 8b3d
000003b0: bd74 62bd b72e 32bd 6af0 d23a bb54 b63c
000003c0: 6dbb f2bd 682b 32bd abbc ca3d c5f1 89be
000003d0: a30b 833e 739b 1b3e 4541 093e 7e0b 6abd
000003e0: 6ccf c23c 62d3 50bd 4f8a 143d 2255 833b
000003f0: f06d 7cbd dd82 b43d f225 063e 1e51 3fbe
0.044705078 -0.059837215 0.12618777 0.038706116 0.01615089 0.17490396 -0.094563544 -0.3062914
0.10415338 -0.067977615 -0.0818464 -0.04809196 -0.02921812 -0.016650353 -0.07897108 0.04501299
-0.011766842 -0.10710539 0.065252036 0.16448282 0.08428666 0.25735068 0.066177554 0.09713037
-0.16378571 0.042884294 -0.13281731 0.3108 0.012781361 -0.16640727 -0.005335529 -0.02379841
-0.16685803 0.120036915 -0.17977719 0.011206691 -0.13300596 -0.054517996 0.061634306 0.040819664
-0.0312588 0.23816948 0.06253474 0.034773868 0.30577558 -0.17088164 0.09407239 0.12291821
0.07474054 0.06296681 0.10992984 0.16325659 0.03807233 0.047021147 -0.09369565 -0.0048059355
0.047348034 -0.050597355 -0.10741421 -0.0317288 0.12805839 -0.12679152 -0.2724627 -0.028851213
-0.060323086 -0.08987871 0.19116274 -0.08825834 -0.131379 -0.075752944 0.084270135 0.022867389
0.06794791 0.03857593 -0.068457104 0.09761188 -0.26160127 -0.05480548 0.013014334 0.098066576
-0.07503038 -0.056285225 -0.11412649 0.058981102 0.06622104 0.05284778 0.16967945 0.081630826
-0.061167173 -0.007069545 0.11286447 -0.059018232 -0.012054054 -0.03852096 0.1638207 -0.09741781
-0.21732637 -0.08252085 -0.047737245 -0.08518284 -0.34648415 -0.018822296 0.10096447 -0.06006503
-0.13358124 0.2655796 0.15735604 0.20134467 0.24426106 -0.07017825 0.0408145 0.06524172
0.04638498 -0.036137998 -0.04306772 0.15827267 -0.07356119 0.10124651 -0.05337714 -0.06587201
0.1000452 0.14952147 0.09214119 -0.08047203 0.021229241 -0.0394047 -0.07970148 -0.06703443
0.074254565 0.09785039 -0.10329234 0.0038667002 0.13796903 0.028441738 0.09195882 -0.18742749
0.03178237 0.13203804 0.16232981 -0.11060774 0.1239321 -0.05302923 0.054987956 -0.03473737
-0.036295462 -0.030488783 -0.05953174 0.021046849 -0.060392696 -0.03955777 0.045026347 -0.08475047
0.27185714 0.0038980371 -0.031496536 -0.033024106 0.015496764 -0.076903194 -0.008264371 -0.12365092
0.17721932 0.097544864 0.060421888 -0.0752536 0.15754902 0.034696914 -0.05208564 0.028102526
0.06895621 -0.22975993 0.04556015 0.077974536 -0.061780326 0.104797296 -0.034995083 0.051402025
-0.11924363 -0.0068898713 -0.2500329 -0.09246979 0.1174693 0.061526004 -0.014722919 0.07431916
-0.10473832 -0.03700134 0.11057828 0.037009213 -0.16533886 0.016695019 0.21354544 -0.04473144
0.07510573 -0.012806863 -0.08607161 0.14227888 0.08478979 -0.012349208 -0.17545736 -0.020625513
0.11487417 -0.08315963 -0.040602643 -0.119053125 -0.0363338 0.017111097 0.013163133 -0.07231105
-0.08572867 0.11866233 -0.0028432317 0.034119084 0.0022427256 0.09916637 -0.035865165 0.10264999
0.12820977 -0.114818916 -0.0160835 -0.03961674 -0.05091175 0.086732954 0.033098813 -0.078935355
0.00083976006 0.012672558 0.3609298 0.007324332 0.09497483 -0.08668359 -0.13836221 -0.052167878
-0.23058929 -0.08330483 0.048533276 0.06790462 -0.05528711 -0.043501582 0.0016093377 0.0222572
-0.11852155 -0.043498427 0.09899267 -0.26942268 0.25594816 0.15196018 0.13403805 -0.057139866
0.023780547 -0.05098284 0.036264714 0.0040079514 -0.061628282 0.08814023 0.13100412 -0.18683288

bias f4 [32]
00000000: 8562 3d3d 2523 a9bc cd73 903d 1fa6 db3d
00000010: 465b 313d ad4c 4c3e 88e3 213c a7cb 0b3e
00000020: d7b6 00be 2221 613d 3601 283d 4343 cc3d
00000030: f1c6 7c3d 806c 1c3e 3c0f 503e 7674 873d
00000040: 87a9 83bc 06dc f33c de57 fa3d 3f5d 7f3e
00000050: ced2 503d 95cb c8bc 9789 0fbc 2474 26bc
00000060: 7e94 a43d 51bb 223c a12b 173d ee74 c2bd
00000070: c4cf 063d 230e ef3d 36df eabc 6482 673d
0.046236534 -0.020646641 0.07053337 0.107250445 0.043299936 0.19951124 0.009880908 0.13651906
-0.12569748 0.05496324 0.04101678 0.09973767 0.061713163 0.15275764 0.20318311 0.0661401
-0.016072048 0.029768001 0.122237906 0.24937914 0.05098229 -0.024511138 -0.008760831 -0.010159526
0.08036135 0.009932355 0.036906842 -0.09494959 0.032912984 0.11672618 -0.028670888 0.056520835

weight f4 [8, 32]
00000000: ac00 1abd 70e0 5f3d 356a 793e 7e01 bf3e
00000010: b40a 58be e59a 26bd e07b 91be a335 95bd
00000020: 6e18 53bd d6bc 0ebd 5d40 c0bc 4918 203e
00000030: d3cf 7e3d 4af2 25bc dade 12bd 4c7a 04be
00000040: 2b84 1abe c68a 11bc e030 663e bd7c 0a3e
00000050: cc82 a23e 2b43 fe3c 89d0 483d 0979 703d
00000060: d9b7 a43e d1bc 0a3e bf85 83bd f75b 693d
00000070: 27bf 59bd c1c4 4b3d 015d 183e 0b8d f6be
00000080: 43b3 ff3e 2939 e1bd 8f6a 42be f40a 35be
00000090: d06a b3bc 4551 363e 50e4 213d 57b8 13bf
000000a0: 4014 2f3f 3b15 dd3d 7558 0cbf 9adb 3d3e
000000b0: d548 19bd fa36 423d 06ff 1fbe c3f9 a63e
000000c0: db4f 56be 4799 413e 9820 153d 0628 87bc
000000d0: 4f38 1dbd 2b8c 6e3c 84aa 363e 3cca 46ba
000000e0: 8cab 6d3e dad8 503d 1115 89bd b684 debe
000000f0: 1d55 bd3d 15c9 e1bc 226c cdbe 9f63 1ebe
00000100: 2b78 72bd 6308 9fbe 7dcf 79bd d9d5 d6be
00000110: 9290 36be 0286 ff3e 7ac1 c3bd c3d5 fc3d
00000120: 7766 f5bd ee2c 8dbc d494 033f 82a2 193e
00000130: 5f07 bf3e 6f3b 8f3e c32e 41be 465a 1dbe
00000140: 8eb7 c3bd 341e c33e 01c1 a3be 5282 1bbe
00000150: 0351 65be 7f0d 84ba ea66 3dbe 9321 403f
00000160: 56fe aa3d 2ec3 3f3e dca8 06be f356 193e
00000170: e365 2ebf 5f06 293e 5e68 1bbe 7435 253e
00000180: 8258 06be fc1b c8be 17de c53e 5b4b c03d
00000190: baec 493e 601e 993e 03bd 13be d9a9 b13d
000001a0: f28a c83d 541f 0fbe a548 11be bb24 15be
000001b0: 54cf 40bd 4911 e63d 2832 1a3f 4b46 953d
000001c0: f5d5 b8be 949e 633e ff59 5c3e bdfb 223f
000001d0: 03b2 cebd 99f9 29bb 4929 d03c 2901 873d
000001e0: 9a30 5ebe 8c0e 8f3d b60a 9bbd 5d31 1fbe
000001f0: 4b9f 3dbe 313e 863e 9899 cebe 6d0e c23c
00000200: 9412 cb3e b947 12bd 80a4 5c3e 6d8c 12be
00000210: 0bdf 95be 3e9f 45bc c9db cb3d 5852 373e
00000220: 5628 b6bd f837 3bbd 6232 123e 3090 a0be
00000230: 6050 073e e520 1cbe 50d9 ee3d d446 e3be
00000240: 264f 90bc 9469 5a3e f0af 5f3e 0dbb 00bd
00000250: b758 613d a84b 2f3c d38c 983e 756d b83d
00000260: 3b17 853e 7db0 ea3d a23a a33e 0727 77bd
00000270: 0734 2d3d d5d7 193d 1a8e 13be 2207 4d3d
00000280: 7c88 693d e0b9 85bc 8006 9f3c 315e 943d
00000290: 061b 433c a5da 48bd 96a3 22bb 2a8e 093e
000002a0: 6257 863c 64cb dabd a254 ae3b 24c9 873d
000002b0: 5914 ecbd 60a6 143e 0a30 323c 145e 3b3e
000002c0: 939e ff3d 3544 343e 6307 e83d 4c8d ccbd
000002d0: 576b 83bd f1b3 c13c 2061 923d c5b5 133e
000002e0: f781 983d 5ecd e03c 3ef5 39bd 476c f03c
000002f0: 4e73 17bd 0b04 7abc 6181 dc3d db31 f8bc
00000300: 0248 0abd eda5 c83e d33f 4d3d 6bc0 a33e
00000310: 4148 853e cda3 66be f598 87be 81e1 68be
00000320: d4fd 2abd 800b e13e 234e 08bf 9d43 ba3d
00000330: 9a22 c2be 97d1 67be 0e5a 8fbd fa42 8bbd
00000340: 47f8 963e 7131 343e 4cff 283d 4d91 8cbd
00000350: 6f39 35be d5c7 8fbc f1e9 59be 87f1 05bf
00000360: 5054 053e bf94 45bd 827f 1d3e e469 f1be
00000370: dac6 0b3e c64f 59be 4dcd c43b d52c 8539
00000380: 4f53 563e 00ba debd 252c 6a3d a23d 8fbd
00000390: 8653 023b 95b0 24bd a127 fdbb 5c2d 1a3e
000003a0: b8c8 0abe 29f2 783d 85c1 b4bd 900c 323e
000003b0: 0a71 113e d746 2a3e 8618 1c3e ca65 353c
000003c0: 2b74 0b3e dac5 7e3c db11 633d 75c2 cd3d
000003d0: 999e 033d 52f1 9d3c 91a0 093c 0def 16bd
000003e0: 07c5 cbbd 62e0 a73d 0fa2 5b3d 9045 85bc
000003f0: ed30 d1bd ba05 e13c 5fc9 9d3d bc34 1bbc
-0.037598297 0.0546574 0.24356921 0.37305826 -0.21097833 -0.040675063 -0.28414822 -0.07285621
-0.05153697 -0.034848057 -0.02346819 0.15634264 0.062209915 -0.010128567 -0.03585706 -0.12937278
-0.1508948 -0.008883184 0.22479582 0.13524146 0.31740415 0.031037888 0.049027 0.058709178
0.32171515 0.1354859 -0.064219944 0.05697247 -0.053160813 0.049748186 0.14879228 -0.48154482
0.49941453 -0.109972306 -0.18985961 -0.1767996 -0.021901518 0.1780444 0.039524376 -0.57703155
0.68390274 0.10795065 -0.54822475 0.18540803 -0.037422974 0.04741571 -0.15624627 0.32612428
-0.209289 0.18906127 0.036408037 -0.016498577 -0.03838378 0.014559786 0.17838484 -0.0007583236
0.23209971 0.050988056 -0.06693471 -0.43460625 0.0924475 -0.027561704 -0.4012156 -0.1546769
-0.059196632 -0.31061086 -0.060988892 -0.41960028 -0.17828587 0.49906927 -0.09558387 0.12345459
-0.11982434 -0.017233338 0.5139897 0.15003398 0.3731031 0.27975032 -0.18865494 -0.15366468
-0.09556495 0.3810898 -0.31983188 -0.15186432 -0.22394185 -0.0010074823 -0.1849629 0.7505123
0.08349292 0.18726799 -0.13150352 0.14974575 -0.68124217 0.16506337 -0.15176532 0.16133672
-0.131197 -0.3908385 0.38646004 0.09389373 0.1971921 0.29905987 -0.14427571 0.08674974
0.09792127 -0.13976794 -0.14187868 -0.14564793 -0.047072724 0.11233766 0.6023278 0.07288798
-0.36100736 0.22228462 0.21518706 0.6366537 -0.10092547 -0.0025936125 0.025410311 0.06592018
-0.21698228 0.069851965 -0.07570402 -0.15546174 -0.18517797 0.26219323 -0.40351558 0.02368852
0.3966261 -0.03571293 0.21547127 -0.1431138 -0.2927173 -0.012061892 0.0995403 0.17902505
-0.08894412 -0.045707673 0.14277032 -0.31360006 0.13214254 -0.15246923 0.11662543 -0.44389975
-0.017615866 0.21329337 0.21844459 -0.031428386 0.055016246 0.01069919 0.2979494 0.09005252
0.25994286 0.11459444 0.3188067 -0.060339954 0.042285945 0.03755935 -0.14409676 0.05005563
0.057014927 -0.016323984 0.01941228 0.07244528 0.011908298 -0.04903664 -0.0024816743 0.13433138
0.01639909 -0.10683325 0.0053201476 0.066301614 -0.115273185 0.14516592 0.010875711 0.18297607
0.124814175 0.17604144 0.11329534 -0.09987888 -0.06416958 0.023645373 0.071474314 0.14424808
0.07446664 0.027441677 -0.045399897 0.029348506 -0.036975197 -0.015259753 0.107668646 -0.03029721
-0.03376008 0.3918909 0.050109696 0.3198274 0.26031688 -0.22523423 -0.26483884 -0.22742273
-0.041745976 0.43954086 -0.5324423 0.090949275 -0.37917024 -0.22638546 -0.069995984 -0.06799884
0.29486296 0.17596985 0.041259095 -0.068636514 -0.1769769 -0.017551342 -0.21280648 -0.52321666
0.13020444 -0.04823756 0.15380672 -0.471511 0.13650075 -0.21221837 0.006005919 0.0002540114
0.20930217 -0.108753204 0.057171006 -0.069941774 0.001988621 -0.040207464 -0.0077256714 0.15056366
-0.1355313 0.060777817 -0.088259734 0.17387605 0.14203277 0.16628586 0.1524373 0.011071632
0.13618533 0.015550101 0.05543695 0.10046855 0.032133672 0.01928011 0.008400098 -0.03684907
-0.09949689 0.081970945 0.053621348 -0.016268522 -0.1021441 0.027468551 0.07704424 -0.009473022

bias f4 [8]
00000000: bb13 09bd 9063 bb3b cc24 18bd ffdd 013e
00000010: 3dcb f63b bc5f ed3c fbc9 813b c5e2 fe3d
-0.033466082 0.005718656 -0.037144467 0.12682341 0.007531552 0.028976314 0.0039608455 0.124455966

weight f4 [8, 32]
00000000: be74 aabb 90b4 62bb 14c3 7a3b 96ea deba
00000010: f0cd 97bb 21dd 373a 54ea ca39 2de7 0a3b
00000020: 2a46 a53a eea2 173c 05fa 37b9 9c0b d6bb
00000030: 5523 f73b 0ae1 833a c7f3 a1bb 245e 373b
00000040: e2d9 cf39 b99b 253b a2ea 523b bdf7 46bb
00000050: da24 46ba 956c 17bc 06bb 0dba 270e 9f3b
00000060: d355 f738 3b0f 653b 7a0c 2bbb e421 103b
00000070: 47fa 58b9 0b47 3f3a 9b28 98bb 48a4 03bb
00000080: bf3e f739 c0e7 7239 1d33 33bb 4e2c 693a
00000090: 84db 26bc 50af 70bb fcdc b23a 03a2 b5bb
000000a0: 29a3 b13b a3dd f5bb a991 b83b 9fb7 bb3b
000000b0: 2e2c e3ba eecd 583b a571 8b3b 60a3 c0ba
000000c0: 502c 343c d459 0ebc 1937 bf3b 9090 4bba
000000d0: 341a 38b8 2a83 afbc 7af7 c7ba 2e5a 253b
000000e0: a301 92b9 cc7d ef3b 7f84 a6bb 950a f73a
000000f0: 492a 413b 3c83 713b 11a9 c1bb 6143 ff3a
00000100: 3ce3 5bbb 3937 1f3b 941d 18bc be1d d63b
00000110: 30ea 313c aae7 a73b 7f3f 853a 2fd8 30bb
00000120: 5f3d 3dba f68e 9a39 cadd 9cbb 6ef9 893b
00000130: b8ad 883b 63b4 ab3a f6ca b9b8 eb0f 98ba
00000140: 7978 d8ba 9261 9337 67c6 b43a 4642 003c
00000150: 9bd0 a53a f3c8 c0bc dcd8 2d39 363f 81bb
00000160: bc4f 933a ae0f 7d3b 74b0 ddbb 6c8b 63bb
00000170: 1928 db3a a030 d83b 77d9 af3b 4194 c5ba
00000180: db4d 9c3b 0a46 0c3c 162f ffbb 854b 10bb
00000190: 0e0b fb3b 2f53 d739 5d6d 46ba f9a2 723a
000001a0: 2234 1cba 1af0 49bb aca9 f1ba bacb 513c
000001b0: e700 a5bb 50a3 413a 2cef 053b 0a97 19bc
000001c0: f37a 8cbb 3c18 91ba 98c4 a63a df7e c7ba
000001d0: b58d a339 d952 be3c b6c9 b33b 0758 803b
000001e0: 2ebb 313b af11 853a 3f02 4abb a07a 28ba
000001f0: 8d97 47b9 9dbe c5bb 2bdb bb3b a8b4 36bb
00000200: eb63 073b f0f2 573b e673 6fba 43c1 cdba
00000210: b03d cabb d108 57ba d68d 923b 6b89 9eba
00000220: 227d c03b cc8c 19bc 8832 bc3a 00db 883c
00000230: ddef 11bc baa5 f4ba 97f0 b33b 81a3 4bbc
00000240: 2127 ee3b 6fdd 66bc 69bb 51ba 2200 cbba
00000250: 5bf7 23bb 3605 323c 5ad2 09bb 14ef 213b
00000260: 04ee 48bb ff64 2aba 95ce 7cbb 065e 23b9
00000270: 24a7 01bc d668 c43a 6871 15bc 3e00 21bb
00000280: b8c7 013b 6718 a3b9 8d76 9f3a eb40 6c3b
00000290: 7298 423b da56 3cbb 7bbc 8b37 ffd5 05bb
000002a0: dd5c 2ebb 7b0a 7c3a 8f7f cb3b daea d337
000002b0: 25cd 48bb 7afc 7eba a442 10bb 7db6 3bbb
000002c0: cabc 28bb 2a4a 813a f2aa c8b9 d560 403c
000002d0: 5881 793a f98f 46bb b290 a8ba 5ba5 c8ba
000002e0: 04cd acba d759 84bb 8e2f 983b 54e9 00ba
000002f0: 72a5 89bb 87ba ea3b e450 b53a 0d81 05bb
00000300: ad63 70bb 1aad b03b 6f70 84b9 da55 8a3a
00000310: c271 b5ba a1ff 0ebb d8b4 573b 099e 8c3b
00000320: f51d 63bb da6f 77bc 0011 60bb 577c 883c
00000330: 8096 34bb ae7e b3bb b7b4 203b 030c 10bc
00000340: 75e9 f43b e5f6 adbc 41ce 303a 1761 cabb
00000350: d824 0e39 7f15 b6bc 69e4 8abb 73ec 83ba
00000360: 4183 f7ba 3ca1 e6ba 835e 27bc 37d9 7bbb
00000370: bb83 97bb 9ca1 993a 4ffe 90bc 65e3 913b
00000380: 8301 8b3a 7442 3a3b 7457 c5ba 0328 1c3b
00000390: 7209 38bb a6be e23a c539 cb3a 0cfb 0cbb
000003a0: f3c7 72ba be30 423b a6db b93a f790 983a
000003b0: 07ec 083a da7a c3b9 fd3a 0fba ba39 34bb
000003c0: 4292 c1b9 f839 15bb 8040 acba c2ca 843b
000003d0: 1e67 073a b652 f63b 7ee1 08bb f793 cdba
000003e0: 4af8 95ba d450 333b 2c5c 47bb 5660 cb3a
000003f0: 1469 8f3b e88c d839 0d70 c9ba 98ce 8839
-0.005201905 -0.0034592487 0.0038263248 -0.0017007168 -0.004632704 0.0007013847 0.0003870303 0.002119492
0.0012609411 0.009255154 -0.0001754538 -0.0065321457 0.0075420537 0.0010061574 -0.0049423906 0.0027979696
0.00039644452 0.002526982 0.003218331 -0.0030360066 -0.0007558592 -0.009242197 -0.0005406592 0.004853982
0.00011793864 0.0034951705 -0.0026099966 0.0021992857 -0.00020692601 0.0007296658 -0.0046435124 -0.0020086933
0.0004715826 0.00023165252 -0.0027343698 0.00088948465 -0.010184173 -0.0036725588 0.0013646181 -0.005542995
0.0054210615 -0.007503228 0.0056325984 0.0057286764 -0.0017331892 0.0033081728 0.004255491 -0.0014697127
0.010996893 -0.008688409 0.0058354256 -0.0007765377 -4.3893422e-05 -0.021424849 -0.0015256249 0.0025230753
-0.0002784851 0.0073086973 -0.0050817127 0.0018847758 0.0029474667 0.0036851903 -0.005910047 0.0019475037
-0.003355219 0.002429439 -0.009284396 0.0065343073 0.010859057 0.005124052 0.0010166018 -0.0026984324
-0.0007218923 0.00029479683 -0.0047871815 0.0042106425 0.0041710995 0.0013100024 -8.859292e-05 -0.0011601424
-0.0016515396 1.75692e-05 0.0013792039 0.007828301 0.001265067 -0.02353332 0.00016579352 -0.003944303
0.0011238973 0.0038614082 -0.0067654196 -0.0034720553 0.0016720324 0.0065975934 0.0053665 -0.001507409
0.0047700233 0.0085616205 -0.0077875955 -0.002201767 0.00766123 0.00041069972 -0.0007569397 0.0009255852
-0.0005958696 -0.0030813278 -0.0018437407 0.01280492 -0.005035508 0.0007386701 0.0020436747 -0.009374389
-0.0042871176 -0.0011069844 0.0012723384 -0.0015220306 0.00031195363 0.023232864 0.0054866923 0.0039167437
0.0027119624 0.0010152365 -0.0030824093 -0.0006426964 -0.00019034576 -0.0060346858 0.005732914 -0.0027878676
0.002065892 0.0032951199 -0.00091343967 -0.0015697855 -0.0061719045 -0.0008202913 0.0044724746 -0.0012095397
0.005874292 -0.0093719475 0.0014358321 0.01670599 -0.0089072855 -0.0018665113 0.005491327 -0.012429119
0.007267848 -0.01409088 -0.00080006436 -0.001548771 -0.0025019262 0.0108655 -0.002102992 0.0024709152
-0.0030659446 -0.0006500035 -0.003857528 -0.00015579918 -0.007913385 0.0014984857 -0.009121276 -0.0024566795
0.001980288 -0.00031107964 0.0012166068 0.0036049436 0.0029692915 -0.002873829 1.665786e-05 -0.002042174
-0.0026605644 0.0009614599 0.0062102745 2.5262521e-05 -0.0030639854 -0.0009726953 -0.0022012377 -0.0028642707
-0.0025747293 0.0009864022 -0.00038274337 0.011741837 0.000951787 -0.0030298217 -0.0012860505 -0.0015308069
-0.0013183658 -0.00403903 0.004644341 -0.0004917581 -0.004200631 0.007163349 0.0013833311 -0.002037111
-0.0036680505 0.005391729 -0.00025260772 0.001055415 -0.0013843107 -0.0021819847 0.0032914188 0.0042913
-0.0034655307 -0.015102351 -0.003418982 0.016660852 -0.0027555525 -0.005477748 0.0024521777 -0.008791926
0.0074741193 -0.021235893 0.00067446014 -0.006176125 0.000135559 -0.022227047 -0.0042386544 -0.0010064974
-0.0018883721 -0.0017595659 -0.010215404 -0.003842903 -0.004623858 0.0011721137 -0.017699389 0.0044521564
0.0010605309 0.0028420957 -0.001505597 0.002382756 -0.0028081802 0.0017299249 0.0015504888 -0.002151194
-0.0009261362 0.0029631103 0.001417984 0.0011639883 0.0005223159 -0.0003728483 -0.0005463807 -0.0027500228
-0.000369208 -0.0022770148 -0.0013141781 0.004052491 0.0005165207 0.007517184 -0.0020886357 -0.0015684356
-0.0011441794 0.002736141 -0.003041993 0.0015516381 0.00437654 0.00041303714 -0.0015368477 0.00026093866

bias f4 [8]
00000000: 6593 f73b 580b bbba 0cf2 a7bb 6de9 1cbc
00000010: 8cbb b4bb aae3 143b cc34 7dba 805e f43a
0.0075554126 -0.0014270348 -0.00512529 -0.009577137 -0.0055155214 0.0022718706 -0.00096590514 0.0018643886
