bco_policy/Reacher-v2.pt (torch_old, 11518 bytes, 8 tensors)

weight f4 [32, 11]
0.22621393 0.28879124 -0.13294838 -0.112457655 0.20259854 0.19007881 -0.038877465 -0.1631031
-0.023707375 -0.24008083 6.785283e-08 0.15863508 0.12970652 0.14742672 0.030003157 -0.084662415
-0.35527587 -0.10536601 -0.11867146 0.43447453 0.25258222 1.2028116e-11 -0.069276296 -0.07216214
0.16539398 0.09287962 -0.0027491532 0.13492428 -0.13458762 -0.30297208 -0.052682668 -0.0991267
-1.0690989e-06 -0.13602215 -0.14347617 -0.18399082 -0.17465496 -0.08032167 -0.011044453 -0.094397455
0.08639566 -0.04965016 -0.016919855 -3.489405e-07 0.15714565 -0.20016687 -0.17222929 -0.13125634
0.05135576 0.03305911 0.15540642 -0.069386326 -0.035408176 -0.050328963 7.727496e-08 0.19939134
0.15689673 0.10591718 0.25266853 -0.17808391 -0.1411369 -0.23158684 0.07696669 -0.11736749
0.282728 -1.497337e-08 -0.1493115 0.1745541 -0.21972337 -0.06174424 0.12070133 -0.1920062
-0.034904074 -0.08846776 -0.025241576 0.12644295 8.5861835e-13 0.2540825 0.14389288 -0.02896861
-0.11388994 0.046644643 0.051283516 0.25922084 -0.022532651 0.12059131 -0.1563303 -8.4000897e-07
-0.0019811757 -0.186223 -0.31725794 -0.07983676 0.009648086 -0.26721835 0.022097845 -0.29520503
-0.087018274 0.11157126 -2.184215e-08 -0.25219247 0.0068437434 0.052023742 0.08130603 -0.11232601
-0.18254457 -0.1449153 -0.012015672 -0.09265843 0.1344405 -6.602872e-12 -0.09821487 0.3263467
-0.04392456 0.14056647 0.08641716 0.37761855 0.20966619 0.09393361 0.07795255 -0.31684732
5.819797e-06 0.0071763154 -0.13239148 0.15372331 0.10959353 0.11699286 0.18688716 -0.112402536
0.27534255 -0.21045686 -0.10575377 0.0020301614 -0.23692247 0.11566122 -0.10419627 0.0864285
0.02729725 -0.0538557 0.007372478 0.22930658 0.115128145 -0.04884885 2.067207e-07 -0.13738097
0.16036704 0.04364308 0.14010614 0.07234391 0.17131875 0.2494842 -0.05321708 -0.12300467
-0.03974163 0.00030198516 0.108055495 0.147235 0.25717676 0.09030611 0.0043040207 -0.115406
-0.21364258 0.14024082 0.09045582 0.17103365 1.5926218e-05 -0.03677034 -0.12356669 -0.012498559
0.21700557 0.1518827 0.116161175 0.045387812 0.13191637 -0.0016913171 -0.12799183 5.5188704e-11
0.10415534 0.25945917 -0.15010712 -0.029397115 -0.16441731 -0.11895475 -0.16940978 -0.07292965
0.28983414 0.3559869 1.5169853e-08 -0.030832717 -0.057486564 -0.03516367 0.22899422 0.02959599
-0.008866621 0.0038557341 -0.22996354 -0.06139109 0.06113325 0.0016481458 -0.15605378 -0.14712569
-0.006814008 -0.19165231 0.098047316 -0.124475576 -0.19657047 -0.20951885 -0.07605475 0.19276649
-7.324672e-05 0.178625 -0.0002597763 -0.054441076 -0.20978402 0.11866718 -0.116573945 -0.029138353
-0.24942386 -0.10034615 0.21388981 -3.4166245e-05 0.21570377 -0.01688268 -0.045480553 -0.050583445
-0.19846743 0.37680385 0.05466904 0.13817711 0.33751526 -0.4288788 4.972158e-06 -0.006846541
0.3766388 -0.33614182 -0.050089117 -0.23588753 -0.19549288 0.10281065 -0.03485704 0.22394341
0.1053569 -1.4763509e-08 -0.0059383223 -0.12244324 0.15484212 -0.038808413 0.11212274 0.038022716
0.18224686 0.24614008 -0.079023235 -0.09563597 5.4678004e-08 0.15737419 0.26407856 -0.25368336
00000000: a0a4 673e 72dc 933e 9f23 08be 3350 e6bd
00000010: fe75 4f3e 05a4 423e fa3d 1fbd 8004 27be
00000020: f835 c2bc c0d7 75be 7db6 9133 3c71 223e
00000030: c9d1 043e 08f7 163e 2ec9 f53c 7d63 adbd
00000040: b8e6 b5be 22ca d7bd 060a f3bd 7273 de3e
00000050: 7552 813e d299 532d bbe0 8dbd bec9 93bd
00000060: 0a5d 293e ac37 be3d 232b 34bb 9729 0a3e
00000070: 56d1 09be 281f 9bbe c8c9 57bd f002 cbbd
00000080: f57d 8fb5 6449 0bbe 6beb 12be 1768 3cbe
00000090: c0d8 32be b07f a4bd cbf3 34bc 7453 c1bd
000000a0: 35f0 b03d f75d 4bbd 829b 8abc 0456 bbb4
000000b0: caea 203e 8bf8 4cbe e05c 30be 1068 06be
000000c0: 6b5a 523d fd68 073d dc22 1f3e 6b1a 8ebd
000000d0: 2a08 11bd be25 4ebd 5cf2 a533 3e2d 4c3e
000000e0: 89a9 203e 1beb d83d c55d 813e a15b 36be
000000f0: 3186 10be 1a25 6dbe b6a0 9d3d 5e5e f0bd
00000100: b9c1 903e ca9e 80b2 1de5 18be 4fbe 323e
00000110: 2aff 60be 87e7 7cbd 4232 f73d 469d 44be
00000120: 93f7 0ebd 962e b5bd 6cc7 cebc 437a 013e
00000130: f9ad 712b 1a17 823e a858 133e 944f edbc
00000140: 213f e9bd 740e 3f3d aa0e 523d 98b8 843e
00000150: 6596 b8bc 94f8 f63d 0d15 20be fa7c 61b5
00000160: 9dd6 01bb 3eb1 3ebe a26f a2be 7581 a3bd
00000170: 0113 1e3c d8d0 88be 8a06 b53c 1d25 97be
00000180: a336 b2bd 797f e43d 659f bbb2 5f1f 81be
00000190: 7b41 e03b d916 553d c783 a63d 2e0b e6bd
000001a0: f7ec 3abe ad64 14be 62dd 44bc b4c3 bdbd
000001b0: c5aa 093e 6251 e8ac e124 c9bd ea16 a73e
000001c0: 3dea 33bd a8f0 0f3e 7bfb b03d 3857 c13e
000001d0: bcb2 563e 4460 c03d 96a5 9f3d d039 a2be
000001e0: ad47 c336 4c27 eb3b a291 07be a569 1d3e
000001f0: 9372 e03d f499 ef3d 595f 3f3e 4d33 e6bd
00000200: b3f9 8c3e 0182 57be 6f95 d8bd 750c 053b
00000210: ce9b 72be cadf ec3d db64 d5bd 6d01 b13d
00000220: 7c9e df3c cb97 5cbd d494 f13b 58cf 6a3e
00000230: 4ec8 eb3d bb15 48bd f4f6 5d34 99ad 0cbe
00000240: 4237 243e 16c3 323d fc77 0f3e 0b29 943d
00000250: 2f6e 2f3e c978 7f3e 27fa 59bd dfe9 fbbd
00000260: 1fc8 22bd c353 9e39 334c dd3d c6c4 163e
00000270: acac 833e 69f2 b83d be08 8d3b fb59 ecbd
00000280: 1fc5 5abe 4a9b 0f3e e740 b93d 7223 2f3e
00000290: 4b99 8537 7f9c 16bd 8810 fdbd c2c6 4cbc
000002a0: b536 5e3e 2387 1b3e e9e5 ed3d 92e8 393d
000002b0: 1615 073e 2faf ddba 4a10 03be f5b8 722e
000002c0: 654f d53d d5d7 843e aeb5 19be 38d2 f0bc
000002d0: 035d 28be 8c9e f3bd c279 2dbe 245c 95bd
000002e0: 2465 943e ea43 b63e dc4e 8232 e594 fcbc
000002f0: 0877 6bbd c807 10bd 767d 6a3e 4a73 f23c
00000300: 4e45 11bc 7cb0 7c3b 907b 6bbe 3975 7bbd
00000310: dc66 7a3d 9906 d83a 90cc 1fbe 1ea8 16be
00000320: 0b48 dfbb 8140 44be 08cd c83d 0ded febd
00000330: c549 49be 1c8c 56be 98c2 9bbd 9464 453e
00000340: 099c 99b8 79e9 363e 9632 88b9 9bfd 5ebd
00000350: 9fd1 56be c707 f33d 52be eebd 8eb3 eebc
00000360: f868 7fbe 4882 cdbd ee05 5b3e ba4d 0fb8
00000370: 73e1 5c3e 8c4d 8abc d149 3abd 9630 4fbd
00000380: 0c3b 4bbe 6fec c03e a5ec 5f3d 4d7e 0d3e
00000390: cdce ac3e 0196 dbbe 83d6 a636 f358 e0bb
000003a0: cdd6 c03e c81a acbe 3f2a 4dbd 808c 71be
000003b0: 492f 48be 648e d23d 41c6 0ebd 6c51 653e
000003c0: 5cc5 d73d 99a2 7db2 4296 c2bb 85c3 fabd
000003d0: ef8e 1e3e 92f5 1ebd 9ba0 e53d b5bd 1b3d
000003e0: ec9e 3a3e 250c 7c3e efd6 a1bd cbdc c3bd
000003f0: 1ad7 6a33 b326 213e 4e35 873e c9e2 81be

bias f4 [32]
0.08277803 -0.22946472 -0.09035696 0.06242314 0.015472714 0.2853557 -0.18962827 -0.22113179
-0.19035503 -0.00019797764 -0.0142171895 -0.017204564 -0.12439099 -0.11545524 0.17292477 0.02650234
0.061357982 -0.046961688 -0.043323066 0.26560685 -0.14900503 0.24820614 0.05674713 -0.17873622
0.14978905 -0.17607978 0.24323264 0.3057392 0.16577749 -0.050090212 0.0037839324 -0.18262394
00000000: 8787 a93d cdf8 6abe 120d b9bd 68af 7f3d
00000010: 4481 7d3c 241a 923e ea2d 42be 5f70 62be
00000020: 6eec 42be 3898 4fb9 37ef 68bc 96f0 8cbc
00000030: b4c0 febd cc73 ecbd 3113 313e 6f1b d93c
00000040: 8252 7b3d e65a 40bd 8773 31bd 9ffd 873e
00000050: c694 18be c029 7e3e ae6f 683d a106 37be
00000060: 4d62 193e 424e 34be fa11 793e d989 9c3e
00000070: 93c1 293e 652b 4dbd dafb 773b c501 3bbe

weight f4 [32, 32]
-0.08282944 0.07897462 -0.05656228 -0.12538473 0.06356444 0.064538166 -0.12661068 0.12550144
-0.12637115 -0.008693022 -0.14427614 -0.073167644 -0.016462097 -0.0440603 -0.05719774 0.0072026006
0.10119144 -0.09175734 0.03691756 0.07269179 -0.015242155 -0.038437154 -0.07660164 -0.028061578
-0.07283879 0.024770057 -0.0555119 -0.114630744 -0.049244218 0.09318274 0.029792465 -0.017007058
0.01941583 -0.24398454 0.05022481 -0.16342664 -0.018891115 -0.035781443 -0.03559345 0.087816104
0.04040762 0.14927828 -0.016980913 -0.2503533 0.008654607 -0.13838561 -0.054122306 -0.091334805
-0.088516206 0.0027876238 0.058202982 -0.16235436 0.09945241 0.010436331 -0.08560959 0.23738258
-0.21171142 0.16213776 -0.10421314 0.074202284 0.23345639 -0.011874927 0.22450557 -0.30006158
0.15024564 -0.12836441 -0.10570778 0.070356786 0.070001476 -0.06016793 -0.020742904 0.028321417
0.0110074105 0.14138854 0.1359122 0.10471563 0.13819407 -0.15783457 -0.0978407 -0.17581667
-0.1392086 -0.03760721 0.17903604 0.13935381 0.1992599 0.15574688 -0.050742533 0.04205901
-0.13667214 -0.037163354 0.015534769 0.03245315 -0.09233458 -0.12824306 0.17179123 -0.11748533
0.0792658 0.06264586 0.06342764 -0.04214441 -0.02396976 0.17901464 0.003770457 -0.002336564
-0.050253175 -0.12585324 0.0312478 -0.07833349 0.026348455 0.07502181 0.15714735 0.024966106
-0.08299954 0.108037956 0.044867255 -0.08163235 -0.029962536 0.24302933 0.019436538 -0.18061021
-0.10760623 0.049021788 -0.050688345 0.15879607 0.07736254 0.14476831 -0.014318936 0.10579315
-0.15346192 0.04983049 -0.11457614 0.1899352 0.055370245 0.08458808 0.02452212 0.13230105
0.0010160244 0.022084031 -0.041184712 0.0057143886 -0.069931 0.12981354 0.041071445 0.08310491
0.090487786 -0.15681699 -0.09322504 0.13008808 -0.036112502 0.13412109 -0.054209694 -0.14067192
0.052567605 -0.016323674 -0.046398934 0.04953114 -0.25445962 -0.006747525 -0.11793734 0.004962937
-0.10834939 -0.15617825 0.07232845 -0.0111562135 -0.060267445 0.13340966 0.117094606 -0.043003216
-0.0777279 0.120297246 -0.11886968 -0.105375305 -0.014467522 0.005024771 -0.00022255209 -0.020847155
-0.047912933 -0.0008325431 0.024005678 0.14098026 -0.0017706867 -0.109116554 0.104355656 -0.029746791
0.0014157518 -0.1727694 0.013195253 0.0706064 0.08014923 0.082496606 -0.062286876 0.017891241
0.20520289 -0.050617058 -0.032098398 0.1392257 -0.19700035 0.16367911 -0.063628 -0.05895039
-0.100742884 -0.13449383 -0.18910407 0.16524245 0.0075205336 0.026040936 -0.059405148 0.045019824
-0.013099373 -0.06263471 -0.10473036 0.14306465 0.074303344 0.13343729 0.03022266 -0.27836064
-0.15104693 0.08829921 0.1518845 -0.13648233 -0.031881552 0.0642053 -0.12022926 -0.047475692
0.07666413 -0.0039152335 0.06433545 0.043741085 -0.043087855 -0.09728074 0.091610566 -0.03917857
0.04357288 0.08924112 -0.048244447 0.00016589469 0.027905239 -0.0019308073 -0.04863192 -0.0007999178
-0.07471236 -0.010759667 0.044223383 -0.09406037 -0.003129664 0.11934062 0.03126553 -0.087094896
0.07215653 0.011658134 -0.07769626 -0.041417547 -0.030987829 -0.013624162 -0.0023075081 0.00020659195
00000000: 7ba2 a9bd 72bd a13d d9ad 67bd db64 00be
00000010: 132e 823d 962c 843d 3ba6 01be 7383 003e
00000020: 7067 01be 2d6d 0ebc 20bd 13be ebd8 95bd
00000030: 85db 86bc 9378 34bd 2d48 6abd cb03 ec3b
00000040: 753d cf3d 46eb bbbd de36 173d 6fdf 943d
00000050: 3bba 79bc 4770 1dbd 52e1 9cbd 65e1 e5bc
00000060: 812c 95bd 93ea ca3c 7260 63bd 86c3 eabd
00000070: 4eb4 49bd 98d6 be3d 540f f43c 6352 8bbc
00000080: f20d 9f3c 15d7 79be 88b8 4d3d 5059 27be
00000090: 8ac1 9abc 908f 12bd 70ca 11bd eed8 b33d
000000a0: 7682 253d 68dc 183e 8e1b 8bbc 4f2e 80be
000000b0: 0ecc 0d3c f5b4 0dbe 5aaf 5dbd be0d bbbd
000000c0: fc47 b5bd 91b0 363b 4066 6e3d 3940 26be
000000d0: b5ad cb3d 25fd 2a3c 1554 afbd 6b14 733e
000000e0: e1ca 58be 7107 263e b36d d5bd 5ef7 973d
000000f0: 310f 6f3e 0e8f 42bc cae4 653e aca1 99be
00000100: fed9 193e f671 03be 527d d8bd 3817 903d
00000110: ef5c 8f3d a672 76bd 06ed a9bc 5102 e83c
00000120: 6d58 343c 28c8 103e 912c 0b3e 2675 d63d
00000130: bf82 0d3e 639f 21be b460 c8bd 4909 34be
00000140: b38c 0ebe 050a 1abd 3955 373e c4b2 0e3e
00000150: ca0a 4c3e 1c7c 1f3e 67d7 4fbd 1246 2c3d
00000160: c8f3 0bbe 9a38 18bd 8b85 7e3c 98ed 043d
00000170: ea19 bdbd 2652 03be 0aea 2f3e 269c f0bd
00000180: 1c56 a23d 794c 803d 5ae6 813d 9e9f 2cbd
00000190: 3b5c c4bc 9d4f 373e c619 773b 0a21 19bb
000001a0: 46d6 4dbd acdf 00be 63fb ff3c 4f6d a0bd
000001b0: b7d8 d73c 09a5 993d 3ceb 203e b885 cc3c
000001c0: aafb a9bd 0143 dd3d bac6 373d dd2e a7bd
000001d0: fe73 f5bc aedc 783e 6039 9f3c e2f1 38be
000001e0: a860 dcbd 12cb 483d 959e 4fbd 709b 223e
000001f0: 4070 9e3d 253e 143e f899 6abc 14aa d83d
00000200: 1f25 1dbe 0e1b 4c3d e5a6 eabd 607e 423e
00000210: e9cb 623d 843c ad3d 9de2 c83c ed79 073e
00000220: 1f2c 853a 92e9 b43c 4db1 28bd c43f bb3b
00000230: fc37 8fbd d7ed 043e 883a 283d e832 aa3d
00000240: a951 b93d a294 20be c5ec bebd cf35 053e
00000250: b4ea 13bd 0a57 093e fc0a 5ebd 4d0c 10be
00000260: 2151 573d 3ab9 85bc cf0c 3ebd 2ae1 4a3d
00000270: 8848 82be 581a ddbb 2289 f1bd 22a0 a23b
00000280: 49e6 ddbd 31ed 1fbe f020 943d 8dc8 36bc
00000290: ffda 76bd 8b9c 083e 4ccf ef3d 2424 30bd
000002a0: ce2f 9fbd 675e f63d f271 f3bd 02cf d7bd
000002b0: 2f09 6dbc d6a6 a43b df5c 69b9 a7c7 aabc
000002c0: 5a40 44bd 063f 5aba 8ea7 c43c 215d 103e
000002d0: 6316 e8ba 8078 dfbd 6bb8 d53d 8baf f3bc
000002e0: bf90 b93a 76ea 30be e730 583c 179a 903d
000002f0: 4825 a43d fbf3 a83d 8620 7fbd a790 923c
00000300: b520 523e d553 4fbd 9c79 03bd 2f91 0e3e
00000310: 76ba 49be 7f9b 273e 664f 82bd f775 71bd
00000320: 4952 cebd c0b8 09be 7fa4 41be 5135 293e
00000330: cf6e f63b cd53 d53c d052 73bd b566 383d
00000340: c19e 56bc a046 80bd df7c d6bd 8a7f 123e
00000350: 5a2c 983d c9a3 083e 8395 f73c 4985 8ebe
00000360: 0cac 1abe 37d6 b43d 9c87 1b3e 06c2 0bbe
00000370: 3b96 02bd 117e 833d c23a f6bd df75 42bd
00000380: 1502 9d3d 5c4b 80bb 4ec2 833d da29 333d
00000390: e47c 30bd 203b c7bd 529e bb3d b579 20bd
000003a0: 7a79 323d 0cc4 b63d f89b 45bd 04f4 2d39
000003b0: 8799 e43c 2413 fdba 4432 47bd 93b1 51ba
000003c0: cb02 99bd 5049 30bc 9423 353d b9a2 c0bd
000003d0: 0d1b 4dbb db68 f43d 4910 003d cf5e b2bd
000003e0: cec6 933d c201 3f3c 371f 9fbd 72a5 29bd
000003f0: 30da fdbc e137 5fbc 9039 17bb 9ba0 5839

bias f4 [32]
0.116844505 0.14328551 -0.02211656 0.16697182 0.020448398 0.05073446 0.114237726 -0.059071787
-0.06764135 0.064779945 -0.03879092 0.13013831 -0.0014812663 -0.06794286 0.09576286 -0.0011458335
-0.05675831 -0.16427566 -0.03036814 -0.14728981 0.062316574 0.012375127 0.030057738 -0.031941775
-0.12424858 0.03342133 -0.09546611 0.12545861 -0.0016579623 -0.109918624 0.13064383 0.06698179
00000000: 2c4c ef3d 70b9 123e ca2d b5bc a9fa 2a3e
00000010: 6683 a73c f0ce 4f3d 78f5 e93d 42f5 71bd
00000020: 8c87 8abd 59ab 843d 3ae3 1ebd fa42 053e
00000030: 0d27 c2ba a025 8bbd 511f c43d cb2f 96ba
00000040: 677b 68bd e137 28be 9bc6 f8bc 24d3 16be
00000050: aa3f 7f3d 0bc1 4a3c a53b f63c 61d5 02bd
00000060: 0a76 febd cee4 083d bc83 c3bd 3978 003e
00000070: fc4f d9ba 041d e1bd 7fc7 053e c02d 893d

weight f4 [2, 32]
-0.25571927 0.29105318 0.17525324 -0.023730338 -0.08897711 0.12853181 0.09789144 -0.14328709
0.119367585 -0.090264454 0.08407341 0.15022941 -0.0065409592 -0.0377396 0.16418579 0.00041135732
-0.16656563 -0.0965098 0.17316245 0.14106405 -0.029870357 -0.1404197 -0.1107704 -0.000121605044
0.20467071 -0.134171 -0.16525608 0.14591227 -0.0049443925 0.008188978 -0.19189332 0.06844013
-0.00044743784 0.37080106 0.14779687 -0.14646594 -0.23356651 0.02739616 -0.16358396 -0.10982643
0.032999042 -0.18111266 -0.04876828 0.008369912 -0.018737124 0.19913773 0.07903817 -0.0005918537
-0.2759604 0.08537483 -0.05901167 0.16651142 -0.1721631 -0.105550565 0.06324327 -0.000113009875
0.1794888 -0.21295236 -0.08033616 0.18794498 0.0019532687 -0.12695989 0.19045943 -0.14395165
00000000: a3ed 82be ec04 953e 9675 333e 2066 c2bc
00000010: a239 b6bd d89d 033e 4f7b c83d dab9 12be
00000020: fe76 f43d 92dc b8bd ae2e ac3d bdd5 193e
00000030: 8b55 d6bb d794 1abd 5220 283e 72ab d739
00000040: 2e90 2abe eea6 c5bd 7f51 313e 1873 103e
00000050: aeb2 f4bc 2fca 0fbe 97db e2bd 3606 ffb8
00000060: 3395 513e 1f64 09be e438 29be 076a 153e
00000070: 9204 a2bb 102b 063c af7f 44be 572a 8c3d
00000080: 1796 eab9 a3d9 bd3e 1058 173e 2bfb 15be
00000090: 0f2c 6fbe e96d e03c 8e82 27be aeec e0bd
000000a0: 012a 073d 9975 39be 3fc1 47bd f521 093c
000000b0: 997e 99bc c3ea 4b3e c4de a13d a126 1bba
000000c0: ae4a 8dbe 00d9 ae3d 39b6 71bd f881 2a3e
000000d0: 864b 30be e52a d8bd b085 813d b7ff ecb8
000000e0: e9cb 373e 2f10 5abe 4987 a4bd a674 403e
000000f0: 6902 003b c601 02be cc07 433e 1068 13be

bias f4 [2]
-0.11974711 0.029533356
00000000: f93d f5bd f0ef f13c

weight f4 [2, 32]
-0.044998504 -0.022301087 0.10309829 0.16685377 0.016504033 0.09206949 -0.0134477 -0.04411454
-0.15061145 -0.016252719 -0.18267305 0.0043874416 4.0110834e-05 -0.04100396 0.10784009 0.004209082
0.09375904 0.039971855 0.031313583 -0.023389518 0.109206885 -0.005921741 0.029978365 -3.0832238e-05
-0.069984995 -0.088819094 0.04459414 -0.017361727 0.0030083691 0.071367934 -0.07172479 -0.068195455
-0.024335125 -0.011533888 -0.06621675 0.10469771 0.05623473 -0.032388043 -0.025316846 0.048446845
-0.017375868 0.0468892 -0.029004889 -0.13220967 0.012758088 0.06870443 -0.0347885 -0.0046151946
-0.09574723 0.06818404 0.030228646 0.03157409 0.11742367 -0.034676287 0.07109071 0.0001505464
0.03195138 -0.06663713 -0.07808064 -0.16418235 -0.007204361 -0.08558922 -0.07419002 -0.09099473
00000000: 5a50 38bd c5b0 b6bc 3225 d33d b7db 2a3e
00000010: 7733 873c ee8e bc3d be53 5cbc 73b1 34bd
00000020: e339 1abe 6c24 85bc a50e 3bbe 87c4 8f3b
00000030: ae3c 2838 c5f3 27bd 44db dc3d 57ec 893b
00000040: bd04 c03d 87b9 233d ac42 003d 609b bfbc
00000050: dca7 df3d 2a0b c2bb 3095 f53c dd51 01b8
00000060: 4b54 8fbd c9e6 b5bd 58a8 363d 2e3a 8ebc
00000070: 0f28 453b 5a29 923d 72e4 92bd 0faa 8bbd
00000080: 755a c7bc a2f8 3cbc a69c 87bd c16b d63d
00000090: 6356 663d 53a9 04bd 4665 cfbc 3370 463d
000000a0: d657 8ebc e40e 403d a99b edbc f961 07be
000000b0: 4d07 513c e8b4 8c3d 637e 0ebd 0f3b 97bb
000000c0: 2017 c4bd 13a4 8b3d 11a2 f73c d553 013d
000000d0: d27b f03d b908 0ebd 0298 913d fedb 1d39
000000e0: 73df 023d 0c79 88bd bee8 9fbd 6b1f 28be
000000f0: 8f12 ecbb 6749 afbd f0f0 97bd 725b babd

bias f4 [2]
-0.0759929 0.0590354
00000000: 2aa2 9bbd 1bcf 713d
